…
2025-04-14 16:01:15 [INFO]: graph_layers: 2
2025-04-14 16:01:15 [INFO]: linear_hidden: [64]
2025-04-14 16:01:15 [INFO]: lr: 0.001
2025-04-14 16:01:15 [INFO]: weight_decay: 0.0001
2025-04-14 16:01:15 [INFO]: feat_drop: 0
2025-04-14 16:01:15 [INFO]: patience: 10
2025-04-14 16:01:15 [INFO]: ft_num: 7
2025-04-14 16:01:15 [INFO]: aggregator: mean
2025-04-14 16:01:15 [INFO]: MainModel(
  (encoders): ModuleDict(
    (metric): Encoder(
      (graph_encoder): SAGEEncoder(
        (sage_layers): ModuleList(
          (0): SAGEConv(
            (feat_drop): Dropout(p=0, inplace=False)
            (fc_neigh): Linear(in_features=128, out_features=64, bias=False)
            (fc_self): Linear(in_features=128, out_features=64, bias=False)
          )
          (1): SAGEConv(
            (feat_drop): Dropout(p=0, inplace=False)
            (fc_neigh): Linear(in_features=64, out_features=32, bias=False)
            (fc_self): Linear(in_features=64, out_features=32, bias=False)
          )
        )
        (pool): MaxPooling()
      )
    )
    (trace): Encoder(
      (graph_encoder): SAGEEncoder(
        (sage_layers): ModuleList(
          (0): SAGEConv(
            (feat_drop): Dropout(p=0, inplace=False)
            (fc_neigh): Linear(in_features=128, out_features=64, bias=False)
            (fc_self): Linear(in_features=128, out_features=64, bias=False)
          )
          (1): SAGEConv(
            (feat_drop): Dropout(p=0, inplace=False)
            (fc_neigh): Linear(in_features=64, out_features=32, bias=False)
            (fc_self): Linear(in_features=64, out_features=32, bias=False)
          )
        )
        (pool): MaxPooling()
      )
    )
    (log): Encoder(
      (graph_encoder): SAGEEncoder(
        (sage_layers): ModuleList(
          (0): SAGEConv(
            (feat_drop): Dropout(p=0, inplace=False)
            (fc_neigh): Linear(in_features=128, out_features=64, bias=False)
            (fc_self): Linear(in_features=128, out_features=64, bias=False)
          )
          (1): SAGEConv(
            (feat_drop): Dropout(p=0, inplace=False)
            (fc_neigh): Linear(in_features=64, out_features=32, bias=False)
            (fc_self): Linear(in_features=64, out_features=32, bias=False)
          )
        )
        (pool): MaxPooling()
      )
    )
  )
  (locator): Voter(
    (net): FullyConnected(
      (net): Sequential(
        (0): Linear(in_features=96, out_features=64, bias=True)
        (1): ReLU()
        (2): Linear(in_features=64, out_features=1, bias=True)
      )
    )
  )
  (typeClassifier): Classifier(
    (net): FullyConnected(
      (net): Sequential(
        (0): Linear(in_features=96, out_features=64, bias=True)
        (1): ReLU()
        (2): Linear(in_features=64, out_features=7, bias=True)
      )
    )
  )
)
2025-04-14 16:01:15 [INFO]: Start training for 500 epochs.
2025-04-14 16:01:15 [DEBUG]: con_loss: 2.741, RCA_loss: 3.103, TC_loss: 2.219
2025-04-14 16:01:15 [DEBUG]: con_loss: 2.705, RCA_loss: 2.942, TC_loss: 2.062
2025-04-14 16:01:15 [INFO]: Epoch 0 done. Loss: 6.716, Time per epoch: 0.343[s]
2025-04-14 16:01:15 [DEBUG]: con_loss: 2.740, RCA_loss: 2.858, TC_loss: 2.037
…
